finalModel.tflite (tflite, 62616 bytes, 6 tensors)

modified_cnn/dense_2/MatMul i1 [3, 128] scale=0.001851831 zero_point=0
0	0xb6	-0.13703549
1	0x59	0.16481295
2	0x19	0.046295773
3	0x98	-0.19259042
4	0x5f	0.17592394
5	0xe5	-0.04999944
6	0xc4	-0.11110986
7	0x2e	0.085184224
8	0x6b	0.19814591
9	0x0a	0.01851831
10	0x37	0.1018507
11	0x0b	0.02037014
12	0x24	0.06666592
13	0x42	0.122220844
14	0x3e	0.11481352
15	0x1f	0.05740676
16	0x9b	-0.18703493
17	0x0d	0.024073802
18	0x06	0.011110986
19	0x2e	0.085184224
20	0xcd	-0.09444338
21	0xd7	-0.07592507
22	0xb8	-0.13333184
23	0x70	0.20740508
24	0x35	0.09814704
25	0x66	0.18888676
26	0xd7	-0.07592507
27	0x15	0.03888845
28	0x91	-0.20555323
29	0xaa	-0.15925747
30	0x4e	0.14444281
31	0xb4	-0.14073916
32	0xd6	-0.0777769
33	0xed	-0.03518479
34	0x95	-0.19814591
35	0xdf	-0.061110422
36	0x00	0.0
37	0x68	0.19259042
38	0xeb	-0.03888845
39	0x05	0.009259155
40	0x67	0.19073859
41	0x69	0.19444226
42	0x50	0.14814648
43	0x19	0.046295773
44	0xd7	-0.07592507
45	0xf3	-0.024073802
46	0x2f	0.08703606
47	0xcd	-0.09444338
48	0x5c	0.17036845
49	0x04	0.007407324
50	0x32	0.09259155
51	0x51	0.1499983
52	0x2a	0.0777769
53	0xe0	-0.05925859
54	0x33	0.09444338
55	0xeb	-0.03888845
56	0xb2	-0.14444281
57	0xfa	-0.011110986
58	0xd2	-0.085184224
59	0x41	0.12036902
60	0x0a	0.01851831
61	0x5d	0.17222027
62	0xa6	-0.1666648
63	0xbf	-0.12036902
64	0xbe	-0.122220844
65	0x3e	0.11481352
66	0x3d	0.11296169
67	0x61	0.17962761
68	0x21	0.061110422
69	0x62	0.18147944
70	0xef	-0.03148113
71	0x36	0.09999888
72	0x1c	0.05185127
73	0xd4	-0.08148056
74	0xaa	-0.15925747
75	0xc7	-0.105554365
76	0x2f	0.08703606
77	0xe8	-0.044443943
78	0x2d	0.0833324
79	0x10	0.029629296
80	0xe6	-0.048147604
81	0xa1	-0.17592394
82	0x5d	0.17222027
83	0x29	0.07592507
84	0xd9	-0.072221406
85	0x01	0.001851831
86	0xea	-0.04074028
87	0x9c	-0.1851831
88	0x26	0.07036958
89	0xe2	-0.05555493
90	0xf6	-0.01851831
91	0xfb	-0.009259155
92	0xc1	-0.11666535
93	0xcc	-0.09629521
94	0xfe	-0.003703662
95	0xf4	-0.022221971
96	0x64	0.1851831
97	0x12	0.03333296
98	0x20	0.05925859
99	0x0a	0.01851831
100	0x22	0.06296226
101	0xbc	-0.12592451
102	0xee	-0.03333296
103	0x96	-0.19629408
104	0x55	0.15740563
105	0xa4	-0.17036845
106	0x4f	0.14629465
107	0x35	0.09814704
108	0x0f	0.027777465
109	0xa3	-0.17222027
110	0x63	0.18333127
111	0x98	-0.19259042
112	0x36	0.09999888
113	0x26	0.07036958
114	0xdc	-0.06666592
115	0x15	0.03888845
116	0xde	-0.06296226
117	0xe7	-0.046295773
118	0x02	0.003703662
119	0xbb	-0.12777634
120	0xe6	-0.048147604
121	0x66	0.18888676
122	0x4f	0.14629465
123	0x37	0.1018507
124	0xc9	-0.1018507
125	0x58	0.16296113
126	0xb8	-0.13333184
127	0xcf	-0.09073972
128	0x50	0.14814648
129	0x2d	0.0833324
130	0xd6	-0.0777769
131	0xa1	-0.17592394
132	0x46	0.12962817
133	0xf2	-0.025925634
134	0x05	0.009259155
135	0x27	0.072221406
136	0x93	-0.20184958
137	0x2b	0.079628736
138	0x6d	0.20184958
139	0xaa	-0.15925747
140	0x0d	0.024073802
141	0xd7	-0.07592507
142	0xfd	-0.005555493
143	0xa3	-0.17222027
144	0x35	0.09814704
145	0xcc	-0.09629521
146	0xb4	-0.14073916
147	0xb7	-0.13518366
148	0x61	0.17962761
149	0x53	0.15370198
150	0xe9	-0.042592112
151	0x1a	0.048147604
152	0x09	0.01666648
153	0x71	0.2092569
154	0x3f	0.11666535
155	0xbc	-0.12592451
156	0x5a	0.1666648
157	0x4e	0.14444281
158	0x36	0.09999888
159	0x6b	0.19814591
160	0x3e	0.11481352
161	0x00	0.0
162	0x3a	0.1074062
163	0xdb	-0.068517745
164	0x0f	0.027777465
165	0x3c	0.11110986
166	0x26	0.07036958
167	0x20	0.05925859
168	0x75	0.21666422
169	0xba	-0.12962817
170	0x32	0.09259155
171	0x60	0.17777577
172	0x3a	0.1074062
173	0xf2	-0.025925634
174	0x45	0.12777634
175	0xf1	-0.027777465
176	0x6b	0.19814591
177	0xd5	-0.079628736
178	0xc5	-0.109258026
179	0x51	0.1499983
180	0x32	0.09259155
181	0x69	0.19444226
182	0x5f	0.17592394
183	0x1f	0.05740676
184	0xe3	-0.0537031
185	0x5d	0.17222027
186	0x07	0.012962817
187	0x4f	0.14629465
188	0x93	-0.20184958
189	0x23	0.06481408
190	0xcc	-0.09629521
191	0x52	0.15185013
192	0x04	0.007407324
193	0x02	0.003703662
194	0xe4	-0.05185127
195	0xfa	-0.011110986
196	0x33	0.09444338
197	0xbc	-0.12592451
198	0xa4	-0.17036845
199	0x25	0.068517745
200	0xb5	-0.13888733
201	0xf6	-0.01851831
202	0xc2	-0.11481352
203	0x31	0.09073972
204	0xcc	-0.09629521
205	0x4b	0.13888733
206	0xb8	-0.13333184
207	0x3b	0.109258026
208	0x59	0.16481295
209	0xf4	-0.022221971
210	0xb5	-0.13888733
211	0xc0	-0.11851718
212	0xcc	-0.09629521
213	0x14	0.03703662
214	0xd2	-0.085184224
215	0xe4	-0.05185127
216	0x53	0.15370198
217	0x2b	0.079628736
218	0x16	0.04074028
219	0xde	-0.06296226
220	0x06	0.011110986
221	0xd2	-0.085184224
222	0x1a	0.048147604
223	0xc4	-0.11110986
224	0x40	0.11851718
225	0x45	0.12777634
226	0x47	0.13148
227	0x23	0.06481408
228	0xe6	-0.048147604
229	0xae	-0.15185013
230	0x11	0.03148113
231	0x2e	0.085184224
232	0xd3	-0.0833324
233	0xbe	-0.122220844
234	0xf2	-0.025925634
235	0x12	0.03333296
236	0x0b	0.02037014
237	0x13	0.03518479
238	0x36	0.09999888
239	0x93	-0.20184958
240	0x28	0.07407324
241	0xc1	-0.11666535
242	0x2a	0.0777769
243	0xd4	-0.08148056
244	0xc8	-0.10370254
245	0x9b	-0.18703493
246	0xef	-0.03148113
247	0xae	-0.15185013
248	0x12	0.03333296
249	0x2e	0.085184224
250	0xaa	-0.15925747
251	0xd2	-0.085184224
252	0x2e	0.085184224
253	0x9f	-0.17962761
254	0x4a	0.13703549
255	0xcd	-0.09444338

modified_cnn/dense_1/MatMul i1 [128, 128] scale=0.0015532667 zero_point=0
0	0x17	0.03572513
1	0xa4	-0.14290053
2	0x34	0.08076987
3	0x0a	0.015532667
4	0xf3	-0.020192467
5	0x59	0.13824074
6	0xde	-0.052811068
7	0xd1	-0.07300353
8	0xd8	-0.062130667
9	0xfd	-0.0046598
10	0x40	0.099409066
11	0x3d	0.094749264
12	0x4a	0.11494173
13	0xf8	-0.012426133
14	0xe5	-0.0419382
15	0x5a	0.13979399
16	0xc1	-0.0978558
17	0x5b	0.14134726
18	0xa4	-0.14290053
19	0x02	0.0031065333
20	0x58	0.13668747
21	0x55	0.13202767
22	0x4b	0.116495
23	0xb5	-0.116495
24	0x27	0.0605774
25	0xc9	-0.08542967
26	0xd6	-0.0652372
27	0xca	-0.0838764
28	0xef	-0.026405534
29	0x3d	0.094749264
30	0x5e	0.14600706
31	0x2b	0.06679047
32	0xb9	-0.11028193
33	0xa5	-0.14134726
34	0xda	-0.059024133
35	0xff	-0.0015532667
36	0xb7	-0.113388464
37	0x0a	0.015532667
38	0x56	0.13358094
39	0xe4	-0.043491468
40	0x49	0.113388464
41	0x07	0.010872867
42	0xe7	-0.038831666
43	0x58	0.13668747
44	0x4d	0.11960153
45	0x3a	0.09008946
46	0xfc	-0.0062130666
47	0xd7	-0.063683935
48	0x25	0.057470866
49	0x4d	0.11960153
50	0xad	-0.12892114
51	0x35	0.082323134
52	0xcd	-0.0792166
53	0xfb	-0.0077663334
54	0x1e	0.046598
55	0xfd	-0.0046598
56	0xd4	-0.068343736
57	0xb1	-0.12270807
58	0x1a	0.040384933
59	0xb4	-0.118048266
60	0x01	0.0015532667
61	0xd1	-0.07300353
62	0x23	0.054364335
63	0xdb	-0.057470866
64	0x47	0.11028193
65	0x44	0.105622135
66	0x3e	0.09630253
67	0xe4	-0.043491468
68	0x56	0.13358094
69	0x5b	0.14134726
70	0xdc	-0.0559176
71	0xd1	-0.07300353
72	0x22	0.052811068
73	0x04	0.0062130666
74	0x23	0.054364335
75	0x3a	0.09008946
76	0x1f	0.048151266
77	0x56	0.13358094
78	0x53	0.12892114
79	0x09	0.0139794
80	0xdd	-0.054364335
81	0xed	-0.029512066
82	0x53	0.12892114
83	0xd8	-0.062130667
84	0xdf	-0.0512578
85	0x20	0.049704533
86	0x18	0.0372784
87	0x12	0.0279588
88	0x42	0.1025156
89	0x02	0.0031065333
90	0xa0	-0.1491136
91	0x47	0.11028193
92	0x18	0.0372784
93	0xcb	-0.082323134
94	0xc3	-0.094749264
95	0xf6	-0.015532667
96	0xac	-0.1304744
97	0x20	0.049704533
98	0x18	0.0372784
99	0x28	0.062130667
100	0x48	0.1118352
101	0xef	-0.026405534
102	0xa5	-0.14134726
103	0xc3	-0.094749264
104	0xce	-0.07766333
105	0x3f	0.0978558
106	0x4f	0.12270807
107	0x0c	0.0186392
108	0x36	0.0838764
109	0xf0	-0.024852267
110	0xfa	-0.0093196
111	0x59	0.13824074
112	0x54	0.1304744
113	0xaf	-0.1258146
114	0x3b	0.09164273
115	0x28	0.062130667
116	0x4b	0.116495
117	0xaa	-0.13358094
118	0xb0	-0.124261335
119	0x1a	0.040384933
120	0xd7	-0.063683935
121	0xbe	-0.1025156
122	0xe0	-0.049704533
123	0xf9	-0.010872867
124	0x52	0.12736787
125	0xdc	-0.0559176
126	0x2a	0.0652372
127	0x48	0.1118352
128	0xc7	-0.0885362
129	0x1c	0.043491468
130	0x2e	0.07145026
131	0xad	-0.12892114
132	0xfc	-0.0062130666
133	0x06	0.0093196
134	0x42	0.1025156
135	0x4e	0.1211548
136	0xc7	-0.0885362
137	0xc2	-0.09630253
138	0xca	-0.0838764
139	0xf2	-0.021745734
140	0xa8	-0.13668747
141	0xe3	-0.04504473
142	0x61	0.15066686
143	0x5b	0.14134726
144	0xad	-0.12892114
145	0xc3	-0.094749264
146	0x3b	0.09164273
147	0xc6	-0.09008946
148	0x28	0.062130667
149	0xca	-0.0838764
150	0x1f	0.048151266
151	0x1b	0.0419382
152	0xac	-0.1304744
153	0x23	0.054364335
154	0x27	0.0605774
155	0xd6	-0.0652372
156	0x1a	0.040384933
157	0x29	0.063683935
158	0x01	0.0015532667
159	0x34	0.08076987
160	0x3b	0.09164273
161	0x4b	0.116495
162	0x60	0.1491136
163	0x40	0.099409066
164	0x4e	0.1211548
165	0xe9	-0.03572513
166	0xc2	-0.09630253
167	0x27	0.0605774
168	0x53	0.12892114
169	0x27	0.0605774
170	0xe9	-0.03572513
171	0x3b	0.09164273
172	0xcb	-0.082323134
173	0x5a	0.13979399
174	0x51	0.1258146
175	0xf6	-0.015532667
176	0x55	0.13202767
177	0xe9	-0.03572513
178	0x06	0.0093196
179	0xe3	-0.04504473
180	0x1b	0.0419382
181	0x48	0.1118352
182	0x2e	0.07145026
183	0xbb	-0.1071754
184	0x30	0.0745568
185	0xaf	-0.1258146
186	0x39	0.0885362
187	0xae	-0.12736787
188	0xb7	-0.113388464
189	0x45	0.1071754
190	0x3d	0.094749264
191	0x1e	0.046598
192	0x64	0.15532666
193	0x57	0.1351342
194	0x09	0.0139794
195	0xe3	-0.04504473
196	0xaa	-0.13358094
197	0xcb	-0.082323134
198	0x02	0.0031065333
199	0x28	0.062130667
200	0x52	0.12736787
201	0xc1	-0.0978558
202	0x9e	-0.15222013
203	0x32	0.07766333
204	0xbc	-0.105622135
205	0x3e	0.09630253
206	0xa0	-0.1491136
207	0x4f	0.12270807
208	0xb8	-0.1118352
209	0x50	0.124261335
210	0xb7	-0.113388464
211	0xb4	-0.118048266
212	0x55	0.13202767
213	0x2f	0.07300353
214	0x3e	0.09630253
215	0xf8	-0.012426133
216	0x04	0.0062130666
217	0x97	-0.163093
218	0x43	0.10406887
219	0x2d	0.069896996
220	0xc5	-0.09164273
221	0x59	0.13824074
222	0x55	0.13202767
223	0xf6	-0.015532667
224	0x42	0.1025156
225	0xed	-0.029512066
226	0xf5	-0.017085934
227	0x28	0.062130667
228	0xb2	-0.1211548
229	0xd3	-0.069896996
230	0x4f	0.12270807
231	0x48	0.1118352
232	0xb4	-0.118048266
233	0x22	0.052811068
234	0x38	0.086982936
235	0x0e	0.021745734
236	0x9d	-0.1537734
237	0x2a	0.0652372
238	0xdd	-0.054364335
239	0x4c	0.118048266
240	0x25	0.057470866
241	0x46	0.10872867
242	0xfb	-0.0077663334
243	0xb3	-0.11960153
244	0xb7	-0.113388464
245	0xe9	-0.03572513
246	0x17	0.03572513
247	0x9b	-0.15687993
248	0x08	0.012426133
249	0x5b	0.14134726
250	0xc9	-0.08542967
251	0x29	0.063683935
252	0xb0	-0.124261335
253	0x0b	0.017085934
254	0xaf	-0.1258146
255	0x37	0.08542967

modified_cnn/dense/MatMul i1 [128, 288] scale=0.00155027 zero_point=0
0	0x26	0.05891026
1	0xab	-0.13177295
2	0x15	0.03255567
3	0x1f	0.048058372
4	0x0e	0.02170378
5	0xea	-0.03410594
6	0x48	0.11161944
7	0x45	0.106968634
8	0xc8	-0.08681512
9	0xfd	-0.00465081
10	0x2f	0.07286269
11	0x49	0.11316971
12	0x0a	0.015502701
13	0x22	0.05270918
14	0xcb	-0.08216431
15	0xea	-0.03410594
16	0x37	0.085264854
17	0xc0	-0.09921728
18	0xff	-0.00155027
19	0x4b	0.11627025
20	0x21	0.05115891
21	0x2f	0.07286269
22	0xb8	-0.11161944
23	0x31	0.07596323
24	0x27	0.06046053
25	0x2b	0.06666161
26	0xbc	-0.10541836
27	0xb8	-0.11161944
28	0xc8	-0.08681512
29	0xd7	-0.06356107
30	0xd0	-0.07441296
31	0xe0	-0.04960864
32	0xf8	-0.01240216
33	0x2c	0.06821188
34	0x36	0.08371458
35	0xe0	-0.04960864
36	0xce	-0.0775135
37	0xfe	-0.00310054
38	0xf1	-0.02325405
39	0xe9	-0.03565621
40	0x1d	0.04495783
41	0xc4	-0.0930162
42	0x18	0.03720648
43	0x41	0.10076755
44	0xce	-0.0775135
45	0xd9	-0.06046053
46	0xb2	-0.12092106
47	0x15	0.03255567
48	0xcb	-0.08216431
49	0xb3	-0.11937079
50	0x16	0.03410594
51	0x11	0.02635459
52	0x2b	0.06666161
53	0x04	0.00620108
54	0x2e	0.07131242
55	0xd9	-0.06046053
56	0x0e	0.02170378
57	0x2d	0.06976215
58	0xc8	-0.08681512
59	0xf2	-0.02170378
60	0x0d	0.02015351
61	0x18	0.03720648
62	0x08	0.01240216
63	0x27	0.06046053
64	0xc0	-0.09921728
65	0xf2	-0.02170378
66	0xfa	-0.00930162
67	0xc4	-0.0930162
68	0x3e	0.096116744
69	0x30	0.07441296
70	0xea	-0.03410594
71	0x46	0.1085189
72	0xce	-0.0775135
73	0x37	0.085264854
74	0xfd	-0.00465081
75	0xce	-0.0775135
76	0xce	-0.0775135
77	0x2d	0.06976215
78	0xf5	-0.01705297
79	0x46	0.1085189
80	0xb0	-0.124021605
81	0xf6	-0.015502701
82	0xff	-0.00155027
83	0xf2	-0.02170378
84	0x4d	0.11937079
85	0x0b	0.01705297
86	0x33	0.07906377
87	0x0a	0.015502701
88	0x1d	0.04495783
89	0x0c	0.01860324
90	0x59	0.13797402
91	0xc3	-0.09456647
92	0xb3	-0.11937079
93	0x38	0.08681512
94	0x47	0.11006917
95	0xbc	-0.10541836
96	0xed	-0.02945513
97	0x15	0.03255567
98	0xba	-0.1085189
99	0xba	-0.1085189
100	0xd5	-0.06666161
101	0x37	0.085264854
102	0xaf	-0.12557188
103	0x19	0.03875675
104	0xf5	-0.01705297
105	0x28	0.062010802
106	0xc7	-0.08836539
107	0xc4	-0.0930162
108	0x1b	0.04185729
109	0x14	0.031005401
110	0xee	-0.02790486
111	0x0f	0.02325405
112	0x1b	0.04185729
113	0x4a	0.11471998
114	0x23	0.05425945
115	0x2d	0.06976215
116	0x0e	0.02170378
117	0xde	-0.05270918
118	0xda	-0.05891026
119	0x44	0.10541836
120	0xca	-0.08371458
121	0x39	0.08836539
122	0x4a	0.11471998
123	0x0a	0.015502701
124	0x12	0.02790486
125	0x4c	0.11782052
126	0x3c	0.0930162
127	0x13	0.02945513
128	0x32	0.0775135
129	0xd0	-0.07441296
130	0x21	0.05115891
131	0x2b	0.06666161
132	0x1a	0.04030702
133	0xe6	-0.04030702
134	0xd6	-0.06511134
135	0xb8	-0.11161944
136	0xd0	-0.07441296
137	0x15	0.03255567
138	0xea	-0.03410594
139	0xbf	-0.10076755
140	0xe3	-0.04495783
141	0xdb	-0.05735999
142	0x37	0.085264854
143	0x48	0.11161944
144	0x19	0.03875675
145	0x1f	0.048058372
146	0xbc	-0.10541836
147	0x0b	0.01705297
148	0xe7	-0.03875675
149	0x15	0.03255567
150	0xff	-0.00155027
151	0xe3	-0.04495783
152	0x1d	0.04495783
153	0xde	-0.05270918
154	0x10	0.02480432
155	0x1c	0.04340756
156	0x17	0.03565621
157	0x0d	0.02015351
158	0xb8	-0.11161944
159	0x2a	0.06511134
160	0xc4	-0.0930162
161	0xce	-0.0775135
162	0x10	0.02480432
163	0xd8	-0.062010802
164	0xbf	-0.10076755
165	0x30	0.07441296
166	0xf1	-0.02325405
167	0xdd	-0.05425945
168	0x13	0.02945513
169	0x1a	0.04030702
170	0x0c	0.01860324
171	0xb3	-0.11937079
172	0x2a	0.06511134
173	0xbe	-0.10231782
174	0x30	0.07441296
175	0x27	0.06046053
176	0xcb	-0.08216431
177	0xfc	-0.00620108
178	0x24	0.05580972
179	0xef	-0.02635459
180	0x3e	0.096116744
181	0xd4	-0.06821188
182	0x47	0.11006917
183	0xed	-0.02945513
184	0x37	0.085264854
185	0x3f	0.09766701
186	0xfa	-0.00930162
187	0x11	0.02635459
188	0xe3	-0.04495783
189	0xd1	-0.07286269
190	0x0a	0.015502701
191	0xb8	-0.11161944
192	0xef	-0.02635459
193	0x2d	0.06976215
194	0x44	0.10541836
195	0x3c	0.0930162
196	0xb9	-0.11006917
197	0xcb	-0.08216431
198	0xb9	-0.11006917
199	0x45	0.106968634
200	0xc1	-0.09766701
201	0xec	-0.031005401
202	0x34	0.08061404
203	0x36	0.08371458
204	0x52	0.12712213
205	0xbc	-0.10541836
206	0x17	0.03565621
207	0xc3	-0.09456647
208	0x06	0.00930162
209	0xf1	-0.02325405
210	0x0d	0.02015351
211	0x34	0.08061404
212	0xb0	-0.124021605
213	0x2c	0.06821188
214	0x39	0.08836539
215	0xb7	-0.11316971
216	0x0c	0.01860324
217	0xc9	-0.085264854
218	0xe1	-0.048058372
219	0x25	0.05735999
220	0xf6	-0.015502701
221	0xc6	-0.08991566
222	0x1a	0.04030702
223	0x15	0.03255567
224	0x09	0.01395243
225	0x99	-0.15967782
226	0xd1	-0.07286269
227	0x21	0.05115891
228	0x28	0.062010802
229	0x00	0.0
230	0xbf	-0.10076755
231	0x25	0.05735999
232	0x2a	0.06511134
233	0x33	0.07906377
234	0x3d	0.09456647
235	0x13	0.02945513
236	0xb7	-0.11316971
237	0x39	0.08836539
238	0xf2	-0.02170378
239	0x12	0.02790486
240	0xe2	-0.0465081
241	0xcf	-0.07596323
242	0xcd	-0.07906377
243	0xae	-0.12712213
244	0xd1	-0.07286269
245	0xed	-0.02945513
246	0x0c	0.01860324
247	0x30	0.07441296
248	0xeb	-0.03255567
249	0xe6	-0.04030702
250	0xc7	-0.08836539
251	0x00	0.0
252	0x28	0.062010802
253	0x39	0.08836539
254	0xde	-0.05270918
255	0x1a	0.04030702

modified_cnn/conv2d_1/Conv2D i1 [32, 1, 1, 20]
0	0xdc	-36
1	0x96	-106
2	0xb3	-77
3	0xda	-38
4	0xc4	-60
5	0x22	34
6	0x06	6
7	0xc5	-59
8	0xf7	-9
9	0x07	7
10	0x5f	95
11	0x81	-127
12	0x48	72
13	0x92	-110
14	0x78	120
15	0x05	5
16	0x67	103
17	0x9c	-100
18	0x68	104
19	0x9b	-101
20	0xb7	-73
21	0xc6	-58
22	0x6d	109
23	0x81	-127
24	0xb3	-77
25	0x07	7
26	0x37	55
27	0xfa	-6
28	0x6b	107
29	0x5e	94
30	0x6c	108
31	0xe8	-24
32	0x29	41
33	0xe2	-30
34	0xc7	-57
35	0x66	102
36	0xfc	-4
37	0xc4	-60
38	0x07	7
39	0x01	1
40	0xac	-84
41	0x1c	28
42	0xe4	-28
43	0x15	21
44	0x78	120
45	0x6a	106
46	0x6c	108
47	0xa5	-91
48	0x2f	47
49	0xb1	-79
50	0x66	102
51	0x98	-104
52	0x0e	14
53	0x20	32
54	0x23	35
55	0xe5	-27
56	0xd4	-44
57	0xee	-18
58	0x7f	127
59	0xc9	-55
60	0xbf	-65
61	0x38	56
62	0x0b	11
63	0x81	-127
64	0xcf	-49
65	0x12	18
66	0x4d	77
67	0xb5	-75
68	0x60	96
69	0xfc	-4
70	0x42	66
71	0xbd	-67
72	0x91	-111
73	0x6c	108
74	0x43	67
75	0x3a	58
76	0x67	103
77	0x94	-108
78	0x12	18
79	0x53	83
80	0x9a	-102
81	0xfb	-5
82	0xbd	-67
83	0x9f	-97
84	0xfc	-4
85	0x57	87
86	0xb8	-72
87	0x36	54
88	0x40	64
89	0x6e	110
90	0x89	-119
91	0x20	32
92	0x44	68
93	0x64	100
94	0x2e	46
95	0x4c	76
96	0xc0	-64
97	0x7f	127
98	0x5c	92
99	0xe2	-30
100	0x65	101
101	0x91	-111
102	0xfd	-3
103	0xf8	-8
104	0x9f	-97
105	0xff	-1
106	0xbc	-68
107	0xef	-17
108	0xb2	-78
109	0xf7	-9
110	0x96	-106
111	0x67	103
112	0x66	102
113	0x59	89
114	0x20	32
115	0x58	88
116	0x14	20
117	0x81	-127
118	0xc3	-61
119	0x78	120
120	0x53	83
121	0x3e	62
122	0xfa	-6
123	0x4e	78
124	0x95	-107
125	0xa6	-90
126	0x9a	-102
127	0x81	-127
128	0xf5	-11
129	0xe4	-28
130	0x9d	-99
131	0xd6	-42
132	0xc6	-58
133	0x22	34
134	0x9f	-97
135	0x13	19
136	0x7e	126
137	0xa3	-93
138	0x61	97
139	0x42	66
140	0xb0	-80
141	0xad	-83
142	0x81	-127
143	0xb7	-73
144	0x31	49
145	0xbd	-67
146	0x48	72
147	0x07	7
148	0x47	71
149	0xea	-22
150	0x87	-121
151	0x74	116
152	0xb5	-75
153	0x99	-103
154	0x0a	10
155	0x8e	-114
156	0xb2	-78
157	0xa7	-89
158	0xea	-22
159	0x0c	12
160	0xa1	-95
161	0xd8	-40
162	0x7f	127
163	0x1a	26
164	0xea	-22
165	0xcb	-53
166	0x40	64
167	0x9c	-100
168	0xf5	-11
169	0x45	69
170	0xa0	-96
171	0x1a	26
172	0x2f	47
173	0xd7	-41
174	0x64	100
175	0xaa	-86
176	0xeb	-21
177	0xdf	-33
178	0x38	56
179	0x1a	26
180	0x5d	93
181	0x18	24
182	0xf1	-15
183	0x38	56
184	0x9c	-100
185	0x54	84
186	0x22	34
187	0x7a	122
188	0x81	-127
189	0x3a	58
190	0x09	9
191	0xd1	-47
192	0x1b	27
193	0x70	112
194	0x3c	60
195	0x8c	-116
196	0xa7	-89
197	0x7a	122
198	0x69	105
199	0x6b	107
200	0xf0	-16
201	0x10	16
202	0x40	64
203	0x76	118
204	0x0f	15
205	0x76	118
206	0xdd	-35
207	0x94	-108
208	0x81	-127
209	0xda	-38
210	0xc5	-59
211	0x3f	63
212	0x01	1
213	0x48	72
214	0x2f	47
215	0x05	5
216	0x04	4
217	0x06	6
218	0x03	3
219	0x17	23
220	0xa5	-91
221	0xc3	-61
222	0x62	98
223	0x81	-127
224	0x6c	108
225	0xd5	-43
226	0xbb	-69
227	0x65	101
228	0xe1	-31
229	0x30	48
230	0x39	57
231	0xcd	-51
232	0xbe	-66
233	0x75	117
234	0x1f	31
235	0x38	56
236	0x19	25
237	0xda	-38
238	0x0e	14
239	0xd9	-39
240	0x2a	42
241	0xad	-83
242	0x17	23
243	0xbc	-68
244	0x6e	110
245	0x6c	108
246	0x87	-121
247	0xf6	-10
248	0x42	66
249	0x60	96
250	0x56	86
251	0x07	7
252	0x35	53
253	0x01	1
254	0x2c	44
255	0x47	71

modified_cnn/depthwise_conv2d/depthwise i1 [1, 3, 3, 20]
0	0xc2	-62
1	0x1d	29
2	0x7f	127
3	0x74	116
4	0xe2	-30
5	0x8b	-117
6	0x53	83
7	0x7f	127
8	0x09	9
9	0x1b	27
10	0x0e	14
11	0xde	-34
12	0xca	-54
13	0x73	115
14	0xd2	-46
15	0x4c	76
16	0x81	-127
17	0xae	-82
18	0xc7	-57
19	0x8b	-117
20	0xc3	-61
21	0x36	54
22	0xe5	-27
23	0x3d	61
24	0x4d	77
25	0x3a	58
26	0x06	6
27	0x49	73
28	0xfe	-2
29	0x2f	47
30	0x0c	12
31	0x75	117
32	0x8d	-115
33	0x7a	122
34	0x55	85
35	0x81	-127
36	0xe0	-32
37	0xc1	-63
38	0xfd	-3
39	0x81	-127
40	0xb0	-80
41	0x90	-112
42	0x46	70
43	0x55	85
44	0xc6	-58
45	0x7a	122
46	0xc7	-57
47	0x87	-121
48	0xbe	-66
49	0x8b	-117
50	0x6b	107
51	0xfe	-2
52	0xed	-19
53	0xdf	-33
54	0xce	-50
55	0xb5	-75
56	0x6b	107
57	0x81	-127
58	0x62	98
59	0x1d	29
60	0xe6	-26
61	0x0e	14
62	0x45	69
63	0x63	99
64	0x7f	127
65	0xe0	-32
66	0x3e	62
67	0x7d	125
68	0x59	89
69	0xd2	-46
70	0xff	-1
71	0x9c	-100
72	0xe1	-31
73	0x92	-110
74	0x2e	46
75	0x4b	75
76	0x4e	78
77	0x3a	58
78	0x35	53
79	0x97	-105
80	0x81	-127
81	0x17	23
82	0x57	87
83	0x7f	127
84	0x2d	45
85	0x81	-127
86	0x49	73
87	0x47	71
88	0x48	72
89	0x74	116
90	0xbf	-65
91	0x7f	127
92	0xa5	-91
93	0x51	81
94	0x10	16
95	0xc9	-55
96	0x40	64
97	0x5a	90
98	0xba	-70
99	0xfc	-4
100	0xe7	-25
101	0xd2	-46
102	0x31	49
103	0xe8	-24
104	0x9f	-97
105	0xc1	-63
106	0x07	7
107	0xe2	-30
108	0xef	-17
109	0xd2	-46
110	0x81	-127
111	0x18	24
112	0x15	21
113	0x87	-121
114	0xfc	-4
115	0xfe	-2
116	0x73	115
117	0xee	-18
118	0xfd	-3
119	0x05	5
120	0x9e	-98
121	0x7f	127
122	0x1a	26
123	0x8c	-116
124	0x22	34
125	0x57	87
126	0x81	-127
127	0x98	-104
128	0x78	120
129	0x81	-127
130	0xb3	-77
131	0x78	120
132	0x7f	127
133	0xee	-18
134	0x81	-127
135	0x96	-106
136	0x9d	-99
137	0x22	34
138	0xc0	-64
139	0xb7	-73
140	0xa0	-96
141	0x00	0
142	0x7a	122
143	0xb1	-79
144	0x23	35
145	0xe2	-30
146	0xff	-1
147	0xb4	-76
148	0x7f	127
149	0x35	53
150	0x8e	-114
151	0xa3	-93
152	0x42	66
153	0x7f	127
154	0xe2	-30
155	0xf3	-13
156	0x12	18
157	0x66	102
158	0x81	-127
159	0xa5	-91
160	0xf6	-10
161	0x8b	-117
162	0xb2	-78
163	0x69	105
164	0x97	-105
165	0x3f	63
166	0x7c	124
167	0x20	32
168	0x92	-110
169	0xa2	-94
170	0x10	16
171	0xcc	-52
172	0x70	112
173	0x23	35
174	0x0d	13
175	0xf4	-12
176	0x52	82
177	0xc2	-62
178	0xd7	-41
179	0xb1	-79

modified_cnn/conv2d/Conv2D i1 [20, 3, 3, 1]
0	0xc5	-59
1	0xb4	-76
2	0xd2	-46
3	0xba	-70
4	0x14	20
5	0x81	-127
6	0x34	52
7	0x34	52
8	0x2e	46
9	0x7b	123
10	0x56	86
11	0x22	34
12	0x81	-127
13	0x03	3
14	0xf0	-16
15	0xa0	-96
16	0xff	-1
17	0x63	99
18	0xe3	-29
19	0x81	-127
20	0x6d	109
21	0x66	102
22	0xb0	-80
23	0x31	49
24	0xf6	-10
25	0x06	6
26	0xd8	-40
27	0xb9	-71
28	0xdd	-35
29	0xd6	-42
30	0xec	-20
31	0xb7	-73
32	0x4d	77
33	0xe9	-23
34	0x7f	127
35	0x67	103
36	0xea	-22
37	0x4c	76
38	0x47	71
39	0x55	85
40	0x8c	-116
41	0xa4	-92
42	0x7f	127
43	0x1c	28
44	0x41	65
45	0xad	-83
46	0xd9	-39
47	0xf7	-9
48	0x97	-105
49	0x81	-127
50	0x37	55
51	0x2e	46
52	0xc6	-58
53	0x5e	94
54	0x01	1
55	0x65	101
56	0xe3	-29
57	0x18	24
58	0xab	-85
59	0x7f	127
60	0x54	84
61	0x49	73
62	0x8f	-113
63	0x40	64
64	0xf2	-14
65	0x2b	43
66	0xd9	-39
67	0xef	-17
68	0x41	65
69	0x28	40
70	0x20	32
71	0x81	-127
72	0xe2	-30
73	0x7f	127
74	0x18	24
75	0xa6	-90
76	0x1a	26
77	0x98	-104
78	0xc3	-61
79	0xba	-70
80	0xea	-22
81	0xf7	-9
82	0x7f	127
83	0x09	9
84	0xdd	-35
85	0x8f	-113
86	0x21	33
87	0xa5	-91
88	0x8d	-115
89	0x55	85
90	0x8f	-113
91	0xe6	-26
92	0x01	1
93	0x15	21
94	0xe6	-26
95	0xcc	-52
96	0x71	113
97	0x22	34
98	0x81	-127
99	0xea	-22
100	0x5a	90
101	0x0d	13
102	0xf5	-11
103	0x7f	127
104	0xa3	-93
105	0x34	52
106	0x22	34
107	0x13	19
108	0x00	0
109	0x33	51
110	0x23	35
111	0x5c	92
112	0xf9	-7
113	0x7f	127
114	0xd6	-42
115	0x30	48
116	0xce	-50
117	0x70	112
118	0x0c	12
119	0x63	99
120	0x0b	11
121	0x81	-127
122	0x4d	77
123	0xce	-50
124	0xbb	-69
125	0xf8	-8
126	0x21	33
127	0x4b	75
128	0x4c	76
129	0x5f	95
130	0xb4	-76
131	0x99	-103
132	0x41	65
133	0x81	-127
134	0x8a	-118
135	0x81	-127
136	0xeb	-21
137	0x00	0
138	0x23	35
139	0x5e	94
140	0xfe	-2
141	0x16	22
142	0xd5	-43
143	0xe9	-23
144	0x5b	91
145	0x81	-127
146	0x07	7
147	0x8d	-115
148	0x6b	107
149	0x2f	47
150	0xe4	-28
151	0x4f	79
152	0x6b	107
153	0xa8	-88
154	0xe6	-26
155	0x9a	-102
156	0x81	-127
157	0x15	21
158	0x5f	95
159	0x3b	59
160	0x1b	27
161	0x57	87
162	0x75	117
163	0x36	54
164	0x3b	59
165	0x38	56
166	0xfa	-6
167	0x47	71
168	0x8c	-116
169	0x7f	127
170	0xbf	-65
171	0x77	119
172	0xfd	-3
173	0x81	-127
174	0x34	52
175	0x2c	44
176	0x86	-122
177	0x3f	63
178	0x21	33
179	0x05	5
